Models/MediaPipe/face_detection_short_range.onnx (onnx, 418536 bytes, 70 tensors)

const_fold_opt__486 f4 [80, 1, 3, 3]
0	0xbf180000	-0.59375
1	0xbfaec000	-1.3652344
2	0xbe274000	-0.16333008
3	0xbf5b0000	-0.85546875
4	0xbf7ee000	-0.99560547
5	0xbfa9c000	-1.3261719
6	0xbf09c000	-0.53808594
7	0xbfa36000	-1.2763672
8	0xbf264000	-0.64941406
9	0x3fd04000	1.6269531
10	0x3fe4a000	1.7861328
11	0x3fc1e000	1.5146484
12	0x3feac000	1.8339844
13	0x4029a000	2.6503906
14	0x3fff0000	1.9921875
15	0x3fb56000	1.4169922
16	0x3ff6e000	1.9287109
17	0x3fbec000	1.4902344
18	0xbf52e000	-0.82373047
19	0xbf1d2000	-0.61376953
20	0xbe8fc000	-0.28076172
21	0xbc492000	-0.012275696
22	0xbf6be000	-0.9213867
23	0xbec1e000	-0.3786621
24	0x3d8d0000	0.068847656
25	0x3e942000	0.28930664
26	0x3d824000	0.06359863
27	0xbee0a000	-0.4387207
28	0xbdad0000	-0.084472656
29	0xbe9b6000	-0.3034668
30	0xbf406000	-0.75146484
31	0x3e50a000	0.20373535
32	0xbed38000	-0.41308594
33	0xbe584000	-0.21118164
34	0xbeed8000	-0.4638672
35	0xbe85c000	-0.26123047
36	0xbf802000	-1.0009766
37	0xbffee000	-1.9912109
38	0x3eda6000	0.42651367
39	0xbfea8000	-1.8320312
40	0xbf99c000	-1.2011719
41	0x3e920000	0.28515625
42	0x3f842000	1.0322266
43	0x3fa60000	1.296875
44	0x3ff4c000	1.9121094
45	0xbf9b4000	-1.2128906
46	0xbf946000	-1.1591797
47	0xbfb00000	-1.375
48	0xbf9d2000	-1.2275391
49	0xbe99a000	-0.30004883
50	0xbfb7e000	-1.4365234
51	0xbf84a000	-1.0361328
52	0xbf90c000	-1.1308594
53	0xbf58a000	-0.8461914
54	0x3d26c000	0.04071045
55	0x3f00e000	0.50341797
56	0xbd740000	-0.059570312
57	0xbe3bc000	-0.18334961
58	0x3ffda000	1.9814453
59	0x3e8c4000	0.27392578
60	0xbeb5c000	-0.35498047
61	0xbddb6000	-0.1071167
62	0x3e2ba000	0.16760254
63	0xbf16c000	-0.5888672
64	0xbf6f4000	-0.9345703
65	0xbf97a000	-1.1845703
66	0xbf16e000	-0.58935547
67	0x3f640000	0.890625
68	0xbfb22000	-1.3916016
69	0xbf4ae000	-0.79248047
70	0xbfab6000	-1.3388672
71	0xbfff6000	-1.9951172
72	0xbdb88000	-0.09008789
73	0xbe1f4000	-0.15551758
74	0xbdf26000	-0.11834717
75	0xbede0000	-0.43359375
76	0xbed70000	-0.41992188
77	0xbedfc000	-0.43701172
78	0xbf39a000	-0.72509766
79	0xbf6fe000	-0.9370117
80	0xbf37a000	-0.71728516
81	0xbe280000	-0.1640625
82	0xbea1a000	-0.31567383
83	0xbef00000	-0.46875
84	0xbd9cc000	-0.076538086
85	0x40598000	3.3984375
86	0xbeac4000	-0.33642578
87	0xbd94a000	-0.0725708
88	0xbdc2c000	-0.09509277
89	0xbe744000	-0.23852539
90	0x3f126000	0.57177734
91	0x3f102000	0.5629883
92	0xbf51a000	-0.81884766
93	0x3fbb0000	1.4609375
94	0x3f460000	0.7734375
95	0xbf56c000	-0.8388672
96	0x3f966000	1.1748047
97	0xbe9fa000	-0.31176758
98	0xbec46000	-0.38354492
99	0xbe936000	-0.2878418
100	0xbe82a000	-0.25512695
101	0xbe3ce000	-0.18444824
102	0xbe9e0000	-0.30859375
103	0x403aa000	2.9160156
104	0xbe7f4000	-0.24926758
105	0xbf1a0000	-0.6015625
106	0xbe9ac000	-0.3022461
107	0xbe6a4000	-0.22875977
108	0x3fc4c000	1.5371094
109	0x3f07a000	0.52978516
110	0x3f846000	1.0341797
111	0x3e944000	0.28955078
112	0xbfe06000	-1.7529297
113	0x3d810000	0.06298828
114	0x3f790000	0.97265625
115	0xbc8a2000	-0.016860962
116	0x3f2a4000	0.66503906
117	0xbaab2000	-0.0013055801
118	0x3e7c0000	0.24609375
119	0xbdd2e000	-0.10296631
120	0xbcb46000	-0.022018433
121	0x3fb10000	1.3828125
122	0xbf2d8000	-0.6777344
123	0xbcb78000	-0.022399902
124	0xbf3fa000	-0.74853516
125	0xbef1c000	-0.47216797
126	0xc0080000	-2.125
127	0xc03ac000	-2.9179688
128	0xbfa7e000	-1.3115234
129	0xc0778000	-3.8671875
130	0xbf3ee000	-0.74560547
131	0xbfb88000	-1.4414062
132	0xc0160000	-2.34375
133	0xbffae000	-1.9599609
134	0xbf416000	-0.7553711
135	0xbeb04000	-0.34423828
136	0x3f520000	0.8203125
137	0x3e2a0000	0.16601562
138	0xbf436000	-0.7631836
139	0xc01c2000	-2.4394531
140	0x3f094000	0.5361328
141	0xbe9b2000	-0.30297852
142	0xbf124000	-0.57128906
143	0x3dae2000	0.08502197
144	0x3ecea000	0.40356445
145	0x3fd72000	1.6806641
146	0x3f3a6000	0.72802734
147	0x3f8f0000	1.1171875
148	0xbcdb2000	-0.026748657
149	0x3fbde000	1.4833984
150	0x3f304000	0.68847656
151	0x3f7ca000	0.9868164
152	0x3f208000	0.6269531
153	0xbe66a000	-0.22521973
154	0x3e80a000	0.2512207
155	0x3e842000	0.25805664
156	0xbd4d8000	-0.0501709
157	0x3f9cc000	1.2246094
158	0x3f142000	0.5786133
159	0x3ddbc000	0.107299805
160	0x3e290000	0.16503906
161	0x3e14c000	0.14526367
162	0x3f7fe000	0.9995117
163	0x3fc9a000	1.5751953
164	0x3f5ac000	0.8544922
165	0x3fbd4000	1.4785156
166	0x3f93e000	1.1552734
167	0x3f390000	0.72265625
168	0x3f600000	0.875
169	0x3f230000	0.63671875
170	0x3ea0c000	0.31396484
171	0xbeb02000	-0.34399414
172	0xbe402000	-0.18762207
173	0x3e276000	0.16345215
174	0xbf018000	-0.5058594
175	0xbf2bc000	-0.67089844
176	0x3ecec000	0.4038086
177	0xbedde000	-0.4333496
178	0xbf076000	-0.5288086
179	0x3e924000	0.28564453
180	0x3ea9e000	0.3317871
181	0x3e2c6000	0.16833496
182	0x3defc000	0.11706543
183	0xbd1be000	-0.03805542
184	0xbfbda000	-1.4814453
185	0x3e640000	0.22265625
186	0xbe7c2000	-0.24621582
187	0x3da40000	0.080078125
188	0x3eb86000	0.36010742
189	0x3db16000	0.08660889
190	0x3d93c000	0.072143555
191	0xbe33c000	-0.17553711
192	0x3d99a000	0.07501221
193	0x4041a000	3.0253906
194	0xbe27a000	-0.16369629
195	0x3c890000	0.016723633
196	0x3cde6000	0.027145386
197	0x3dfcc000	0.123413086
198	0xbf30e000	-0.69091797
199	0x3f8a2000	1.0791016
200	0x3f81a000	1.0126953
201	0xbd880000	-0.06640625
202	0x40026000	2.0371094
203	0x3ff4a000	1.9111328
204	0xbea72000	-0.32641602
205	0x3eea8000	0.4580078
206	0x3f672000	0.90283203
207	0xbe372000	-0.17883301
208	0xbe2ba000	-0.16760254
209	0xbe106000	-0.14099121
210	0xbe55c000	-0.20874023
211	0x40160000	2.34375
212	0xbde08000	-0.10961914
213	0xbe936000	-0.2878418
214	0xbe1a0000	-0.15039062
215	0xbe2c6000	-0.16833496
216	0xbf08a000	-0.5336914
217	0xbff5e000	-1.9208984
218	0xc048c000	-3.1367188
219	0xbe8fc000	-0.28076172
220	0xbfa02000	-1.2509766
221	0xc004e000	-2.0761719
222	0xbf158000	-0.5839844
223	0xbf878000	-1.0585938
224	0xbfb64000	-1.4238281
225	0xbf5ce000	-0.86279297
226	0xbf45c000	-0.77246094
227	0xbf13c000	-0.57714844
228	0xbf0da000	-0.55322266
229	0xbf142000	-0.5786133
230	0xbf0a6000	-0.54052734
231	0xbef5a000	-0.47973633
232	0xbf52c000	-0.8232422
233	0xbf1a2000	-0.6020508
234	0xbe002000	-0.12512207
235	0xbf9ea000	-1.2392578
236	0xbf292000	-0.66064453
237	0xbf6f6000	-0.9350586
238	0xbfde8000	-1.7382812
239	0xbf0e0000	-0.5546875
240	0xbf50c000	-0.8154297
241	0xbfaf8000	-1.3710938
242	0xbf22c000	-0.6357422
243	0x3c086000	0.008323669
244	0xbf67c000	-0.90527344
245	0xbfab4000	-1.3378906
246	0x3c1d4000	0.009597778
247	0xbf466000	-0.77490234
248	0xbfcc8000	-1.5976562
249	0x3b258000	0.0025253296
250	0xbea18000	-0.3154297
251	0xbec6e000	-0.38842773
252	0x3f88c000	1.0683594
253	0x3fa72000	1.3056641
254	0x3f954000	1.1660156
255	0x3f91e000	1.1396484

const_fold_opt__485 f4 [56, 1, 3, 3]
0	0x3fbbe000	1.4677734
1	0x40010000	2.015625
2	0xbeb04000	-0.34423828
3	0x3fbfc000	1.4980469
4	0xbf04e000	-0.51904297
5	0xbf4a0000	-0.7890625
6	0x3f364000	0.71191406
7	0xbe2fc000	-0.17163086
8	0x3eca4000	0.39501953
9	0x3e20c000	0.15698242
10	0x3dbac000	0.09118652
11	0x3e264000	0.16235352
12	0x3f89e000	1.0771484
13	0x3d216000	0.039398193
14	0x3e66e000	0.22546387
15	0x3f610000	0.87890625
16	0x3f514000	0.8173828
17	0x3e2ea000	0.17053223
18	0x3e51e000	0.20495605
19	0x3e1bc000	0.15209961
20	0xbf80c000	-1.0058594
21	0x3ebc6000	0.36791992
22	0x3fb24000	1.3925781
23	0xbfd0e000	-1.6318359
24	0x3db92000	0.09039307
25	0x3e566000	0.20935059
26	0xbf0d2000	-0.55126953
27	0x3e3c6000	0.18395996
28	0x3f800000	1.0
29	0x3edd2000	0.43188477
30	0xbec0e000	-0.37670898
31	0x3f0a2000	0.5395508
32	0x3f55e000	0.8354492
33	0xbf182000	-0.5942383
34	0xbf3c4000	-0.73535156
35	0x3e434000	0.19067383
36	0xbd84e000	-0.06488037
37	0x3e612000	0.21984863
38	0x3e81a000	0.25317383
39	0x3ceec000	0.029144287
40	0x3fffc000	1.9980469
41	0x3e816000	0.25268555
42	0x3ecf8000	0.40527344
43	0x3e660000	0.22460938
44	0x3f8ce000	1.1005859
45	0x3f8a2000	1.0791016
46	0x3fbd0000	1.4765625
47	0x3f84e000	1.0380859
48	0xbcc2a000	-0.023757935
49	0xbf5a2000	-0.8520508
50	0x3f0c2000	0.5473633
51	0x3e1b0000	0.15136719
52	0x3e91a000	0.28442383
53	0x3eef6000	0.4675293
54	0x3eae4000	0.34033203
55	0x3f9b8000	1.2148438
56	0xbec10000	-0.37695312
57	0xbeea6000	-0.45776367
58	0xbf190000	-0.59765625
59	0xbea7a000	-0.32739258
60	0xbe286000	-0.16442871
61	0xbf5b2000	-0.85595703
62	0xbe82c000	-0.2553711
63	0x3f94c000	1.1621094
64	0x3f628000	0.8847656
65	0x3eb88000	0.36035156
66	0x40004000	2.0039062
67	0x3fefc000	1.8730469
68	0xbe8fc000	-0.28076172
69	0x3eb0c000	0.34521484
70	0xbef86000	-0.48510742
71	0xbe98e000	-0.29858398
72	0xbefd4000	-0.4946289
73	0xbfc48000	-1.5351562
74	0xbe9aa000	-0.30200195
75	0xbdca4000	-0.09875488
76	0x3ffac000	1.9589844
77	0x3f7a2000	0.9770508
78	0x3e9f8000	0.31152344
79	0x3f6d0000	0.92578125
80	0x3e67c000	0.22631836
81	0x3f44c000	0.7685547
82	0xbca5a000	-0.020217896
83	0x3f16a000	0.5883789
84	0x3f038000	0.5136719
85	0x3f2e2000	0.6801758
86	0x3eed4000	0.4633789
87	0x3f904000	1.1269531
88	0x3f216000	0.6303711
89	0x3f45a000	0.77197266
90	0x3f620000	0.8828125
91	0xbec2a000	-0.38012695
92	0xbf79c000	-0.97558594
93	0x3e85c000	0.26123047
94	0x3e1ee000	0.15515137
95	0xbfc5a000	-1.5439453
96	0xbf0fc000	-0.56152344
97	0xbed8e000	-0.42358398
98	0xbd91e000	-0.07122803
99	0x3f40e000	0.75341797
100	0xbfb28000	-1.3945312
101	0xbe720000	-0.23632812
102	0xbd794000	-0.06085205
103	0xbfb56000	-1.4169922
104	0xbe714000	-0.2355957
105	0xbd8a0000	-0.06738281
106	0x3c6c8000	0.014434814
107	0xbc8bc000	-0.017059326
108	0xbf454000	-0.7705078
109	0xbd960000	-0.07324219
110	0xbfd3e000	-1.6552734
111	0xbea96000	-0.33081055
112	0x3e09c000	0.13452148
113	0xbf08c000	-0.5341797
114	0x3f018000	0.5058594
115	0x3ed02000	0.40649414
116	0x3eb18000	0.3466797
117	0xbf76e000	-0.96435547
118	0x3ecba000	0.39770508
119	0x3db46000	0.08807373
120	0xbf76e000	-0.96435547
121	0xbe2ba000	-0.16760254
122	0xbec0c000	-0.37646484
123	0xbf0ce000	-0.55029297
124	0xbf03e000	-0.5151367
125	0xbe1e0000	-0.15429688
126	0x3eaf0000	0.34179688
127	0x3f074000	0.5283203
128	0x3e3ce000	0.18444824
129	0x3eeae000	0.45874023
130	0x3ffbc000	1.9667969
131	0x3eb10000	0.34570312
132	0x3ea42000	0.32055664
133	0x3eb14000	0.3461914
134	0x3dd2a000	0.10284424
135	0x393c8000	0.00017976761
136	0xbdb42000	-0.08795166
137	0x3dc22000	0.0947876
138	0x3eddc000	0.43310547
139	0x4010c000	2.2617188
140	0xbe95e000	-0.2927246
141	0xbe2f2000	-0.17102051
142	0x3eb3e000	0.35131836
143	0xbe9b2000	-0.30297852
144	0xbe462000	-0.19348145
145	0xbfd7e000	-1.6865234
146	0xbf298000	-0.6621094
147	0x3f2c4000	0.67285156
148	0xbea7a000	-0.32739258
149	0xbf294000	-0.6611328
150	0x3ee88000	0.45410156
151	0x3f4ce000	0.80029297
152	0xbc87c000	-0.016571045
153	0x3cbc6000	0.022994995
154	0xbf158000	-0.5839844
155	0x3d3bc000	0.045837402
156	0xbbd50000	-0.006500244
157	0x40454000	3.0820312
158	0x3df38000	0.118896484
159	0x3ed64000	0.41845703
160	0x3f86c000	1.0527344
161	0x3eafe000	0.34350586
162	0x3ecc2000	0.39868164
163	0x3f740000	0.953125
164	0x3f500000	0.8125
165	0x3db0e000	0.086364746
166	0x402f8000	2.7421875
167	0x40010000	2.015625
168	0xbf12a000	-0.5727539
169	0xbe520000	-0.20507812
170	0x3f18a000	0.5961914
171	0x3f9b8000	1.2148438
172	0xbd00e000	-0.031463623
173	0xbf134000	-0.5751953
174	0x3f206000	0.62646484
175	0x3f14c000	0.5810547
176	0xbf9c4000	-1.2207031
177	0xbda64000	-0.08117676
178	0xbf664000	-0.89941406
179	0xbf7e6000	-0.99365234
180	0x3e194000	0.1496582
181	0xbea54000	-0.3227539
182	0xbe114000	-0.1418457
183	0x3f8fa000	1.1220703
184	0x3db4a000	0.0881958
185	0xbf1a4000	-0.60253906
186	0x3f93a000	1.1533203
187	0x3fb9c000	1.4511719
188	0x3f80a000	1.0048828
189	0x3d2fc000	0.042907715
190	0x3f3f0000	0.74609375
191	0x3f81e000	1.0146484
192	0xbe28a000	-0.16467285
193	0xbfb9c000	-1.4511719
194	0x3f104000	0.56347656
195	0xbedf4000	-0.43603516
196	0xbe6ba000	-0.23010254
197	0x3e0a8000	0.1352539
198	0xbeffa000	-0.49926758
199	0x3f4ae000	0.79248047
200	0x3f99a000	1.2001953
201	0xbda82000	-0.082092285
202	0xbfb96000	-1.4482422
203	0x3f664000	0.89941406
204	0xbed8e000	-0.42358398
205	0xbf0ea000	-0.5571289
206	0x3e4d2000	0.20031738
207	0xbd742000	-0.05960083
208	0xbfb8c000	-1.4433594
209	0xbf68c000	-0.9091797
210	0x3dca8000	0.09887695
211	0xbfa6a000	-1.3017578
212	0xbd2c6000	-0.04208374
213	0xbedec000	-0.4350586
214	0xbe9f6000	-0.3112793
215	0xbe63a000	-0.22229004
216	0x3d7ec000	0.062194824
217	0xbe66e000	-0.22546387
218	0x3d528000	0.0513916
219	0x3ed04000	0.40673828
220	0xc061a000	-3.5253906
221	0xbe970000	-0.29492188
222	0xbc47e000	-0.012199402
223	0xbe18c000	-0.14916992
224	0xbc8a8000	-0.016906738
225	0x3f32c000	0.6982422
226	0xbe3fe000	-0.18737793
227	0x3f05c000	0.52246094
228	0x3f2fc000	0.68652344
229	0xbe738000	-0.23779297
230	0xbf8a6000	-1.0810547
231	0x3f42c000	0.7607422
232	0x3e186000	0.14880371
233	0xbec12000	-0.37719727
234	0x3f738000	0.9511719
235	0x3fe1a000	1.7626953
236	0x3ebb6000	0.3659668
237	0x3e9c0000	0.3046875
238	0x3f8f0000	1.1171875
239	0x3e8e0000	0.27734375
240	0xbe004000	-0.12524414
241	0xbf1ae000	-0.60498047
242	0xbdaae000	-0.08343506
243	0x3e8d4000	0.2758789
244	0x3dbb6000	0.0914917
245	0xbe930000	-0.28710938
246	0xbde70000	-0.11279297
247	0xbf820000	-1.015625
248	0x3d5a6000	0.05331421
249	0xbe880000	-0.265625
250	0xbfa24000	-1.2675781
251	0xbfbea000	-1.4892578
252	0xbe004000	-0.12524414
253	0x3e888000	0.26660156
254	0x3ec94000	0.3930664
255	0xbf63e000	-0.8901367

const_fold_opt__484 f4 [36, 1, 3, 3]
0	0xbf7dc000	-0.99121094
1	0xbfd02000	-1.6259766
2	0xbf88c000	-1.0683594
3	0xbf91e000	-1.1396484
4	0x3ed84000	0.42236328
5	0x3c85c000	0.016326904
6	0x3cb02000	0.021499634
7	0x3f4ae000	0.79248047
8	0xbdf6a000	-0.12042236
9	0x3ebb0000	0.36523438
10	0x3d21e000	0.039520264
11	0x3e822000	0.2541504
12	0xbea6c000	-0.3256836
13	0xbfef6000	-1.8701172
14	0x3d6e2000	0.058135986
15	0xbf360000	-0.7109375
16	0xbf334000	-0.7001953
17	0x3d5be000	0.05368042
18	0x3f8d0000	1.1015625
19	0x3f8cc000	1.0996094
20	0xbe5fc000	-0.21850586
21	0x3f2e8000	0.6816406
22	0x3f828000	1.0195312
23	0xbf358000	-0.7089844
24	0x3a1e4000	0.00060367584
25	0x3ea10000	0.31445312
26	0xbf2e2000	-0.6801758
27	0x3f744000	0.95410156
28	0x3df8e000	0.121520996
29	0xbf612000	-0.87939453
30	0x3f66a000	0.9008789
31	0xbe2a2000	-0.1661377
32	0xbfc58000	-1.5429688
33	0x3ed42000	0.41430664
34	0x3ef94000	0.4868164
35	0xbf2e2000	-0.6801758
36	0x3f796000	0.9741211
37	0xbe8ea000	-0.27856445
38	0xbf6de000	-0.9291992
39	0x3f6fa000	0.93603516
40	0xbf2c0000	-0.671875
41	0xbfa38000	-1.2773438
42	0xbe870000	-0.26367188
43	0xbf152000	-0.58251953
44	0xbf8d8000	-1.1054688
45	0xbd036000	-0.032073975
46	0xbf7a4000	-0.97753906
47	0xbedfe000	-0.43725586
48	0x3dee0000	0.11621094
49	0xbfec2000	-1.8447266
50	0xbf83a000	-1.0283203
51	0x3e52e000	0.20593262
52	0x3f3a8000	0.7285156
53	0x3dc00000	0.09375
54	0x3eae2000	0.3400879
55	0xbf9cc000	-1.2246094
56	0xbefec000	-0.4975586
57	0xbf812000	-1.0087891
58	0xbfc0e000	-1.5068359
59	0x3edd8000	0.4326172
60	0xbed88000	-0.42285156
61	0x3ee90000	0.45507812
62	0x3f21c000	0.63183594
63	0x3f8ee000	1.1162109
64	0x3fdf0000	1.7421875
65	0x3f84c000	1.0371094
66	0x3ef9e000	0.4880371
67	0x3fd20000	1.640625
68	0x3e6a4000	0.22875977
69	0xbeb6c000	-0.3569336
70	0xbf38e000	-0.72216797
71	0xbf0ae000	-0.54248047
72	0xbf08a000	-0.5336914
73	0x3e9ec000	0.3100586
74	0x3d916000	0.07098389
75	0xbfa2c000	-1.2714844
76	0x3ee70000	0.45117188
77	0x3f666000	0.89990234
78	0xbf8ee000	-1.1162109
79	0x3f164000	0.58691406
80	0x3f460000	0.7734375
81	0x3f108000	0.5644531
82	0x3fb94000	1.4472656
83	0x3e80a000	0.2512207
84	0xbd948000	-0.072509766
85	0x3fb90000	1.4453125
86	0x3f164000	0.58691406
87	0xbf2e4000	-0.68066406
88	0xbf8f0000	-1.1171875
89	0xbf17e000	-0.5932617
90	0x3ed0a000	0.4074707
91	0x3fa26000	1.2685547
92	0x3e81a000	0.25317383
93	0x3ecc0000	0.3984375
94	0x3fd02000	1.6259766
95	0x3fd96000	1.6982422
96	0x3e1e0000	0.15429688
97	0xbe174000	-0.14770508
98	0x3f112000	0.56689453
99	0xbf73a000	-0.95166016
100	0xbead8000	-0.3388672
101	0x3f3ae000	0.72998047
102	0xbfc02000	-1.5009766
103	0xbeed4000	-0.4633789
104	0x3f9e8000	1.2382812
105	0x3efa8000	0.4892578
106	0x3f72c000	0.9482422
107	0x3f3e4000	0.74316406
108	0x3ded0000	0.115722656
109	0x3c980000	0.018554688
110	0xbeada000	-0.33911133
111	0xbf050000	-0.51953125
112	0xbff12000	-1.8837891
113	0xbf388000	-0.7207031
114	0xbe748000	-0.23876953
115	0xbf104000	-0.56347656
116	0xbe954000	-0.2915039
117	0xbfcae000	-1.5849609
118	0xbfe96000	-1.8232422
119	0xbe1be000	-0.15222168
120	0xbdb22000	-0.0869751
121	0x3ea84000	0.32861328
122	0x3f134000	0.5751953
123	0x3f8be000	1.0927734
124	0x3f280000	0.65625
125	0x3eae2000	0.3400879
126	0x3edf2000	0.43579102
127	0x3f4b4000	0.7939453
128	0x3f088000	0.5332031
129	0xbf082000	-0.5317383
130	0xbf78c000	-0.9716797
131	0xbf604000	-0.87597656
132	0xbf27a000	-0.65478516
133	0xbf770000	-0.96484375
134	0xbe98a000	-0.2980957
135	0xbf414000	-0.7548828
136	0xbf8ae000	-1.0849609
137	0xbf8fa000	-1.1220703
138	0x3f100000	0.5625
139	0xbc3d6000	-0.011558533
140	0xbf0b6000	-0.5444336
141	0x3f8f8000	1.1210938
142	0x3f966000	1.1748047
143	0x3f1c8000	0.6113281
144	0x3efc4000	0.49267578
145	0x3f674000	0.9033203
146	0x3d9ce000	0.07659912
147	0x3fa5c000	1.2949219
148	0x3fcb2000	1.5869141
149	0xbbad2000	-0.0052833557
150	0x3f966000	1.1748047
151	0x3ff26000	1.8935547
152	0x3e7ba000	0.24572754
153	0x3dd3c000	0.103393555
154	0xbb100000	-0.0021972656
155	0xbe96e000	-0.29467773
156	0x3c6ac000	0.014328003
157	0xc0278000	-2.6171875
158	0xbd50c000	-0.050964355
159	0xbdbee000	-0.09320068
160	0xbe646000	-0.22302246
161	0xbe068000	-0.13134766
162	0xbf9d6000	-1.2294922
163	0xbfa12000	-1.2587891
164	0xbf006000	-0.50146484
165	0x3e878000	0.26464844
166	0x3fb66000	1.4248047
167	0x3f162000	0.5864258
168	0x3f258000	0.6464844
169	0x3f5d8000	0.8652344
170	0x3ec26000	0.37963867
171	0xbfb08000	-1.3789062
172	0xbd13c000	-0.036071777
173	0x3f968000	1.1757812
174	0xbf850000	-1.0390625
175	0xbd4e4000	-0.050354004
176	0x3fd00000	1.625
177	0x3e112000	0.14172363
178	0x3e8ee000	0.27905273
179	0x3f4b8000	0.7949219
180	0x3fc20000	1.515625
181	0x3f066000	0.52490234
182	0xbeac2000	-0.33618164
183	0x3f946000	1.1591797
184	0x40010000	2.015625
185	0x3dbec000	0.09313965
186	0xbe1b8000	-0.15185547
187	0x3dcd2000	0.10015869
188	0xbe8ec000	-0.2788086
189	0xbf1d0000	-0.61328125
190	0xbe7de000	-0.2479248
191	0x3c914000	0.017730713
192	0xbf912000	-1.1337891
193	0xbf0ae000	-0.54248047
194	0xbd80a000	-0.062805176
195	0xbef48000	-0.47753906
196	0xbed0a000	-0.4074707
197	0xbde4e000	-0.11175537
198	0x3f95c000	1.1699219
199	0x3db70000	0.08935547
200	0xbf6dc000	-0.92871094
201	0x3fd62000	1.6728516
202	0x3eb6c000	0.3569336
203	0xbf772000	-0.96533203
204	0x3fd6c000	1.6777344
205	0x3ff60000	1.921875
206	0xbec14000	-0.3774414
207	0x3f014000	0.5048828
208	0x3f2e0000	0.6796875
209	0x3f90a000	1.1298828
210	0xbdf12000	-0.11773682
211	0xc0060000	-2.09375
212	0xbf1a6000	-0.60302734
213	0xbe12e000	-0.14343262
214	0xbea90000	-0.33007812
215	0xbd2fa000	-0.042877197
216	0xbf86e000	-1.0537109
217	0xbefea000	-0.49731445
218	0x3edf4000	0.43603516
219	0xbfcd4000	-1.6035156
220	0x3f632000	0.88720703
221	0x3f3e0000	0.7421875
222	0xbf01a000	-0.50634766
223	0x3fb0e000	1.3818359
224	0x3f160000	0.5859375
225	0x3e1e0000	0.15429688
226	0x3f928000	1.1445312
227	0x3cc7e000	0.024398804
228	0xbecb0000	-0.39648438
229	0x402b8000	2.6796875
230	0x3ef58000	0.4794922
231	0xbf174000	-0.5908203
232	0x3f346000	0.70458984
233	0x3f280000	0.65625
234	0xbe186000	-0.14880371
235	0xbfbc4000	-1.4707031
236	0xbf6bc000	-0.92089844
237	0x3e70a000	0.23498535
238	0xbff4a000	-1.9111328
239	0xbf23c000	-0.63964844
240	0xbdc22000	-0.0947876
241	0x3ea0c000	0.31396484
242	0x3ce0c000	0.027435303
243	0x3f35e000	0.7104492
244	0x3fc42000	1.5322266
245	0x3fb7c000	1.4355469
246	0x3f85e000	1.0458984
247	0x3fe00000	1.75
248	0x3f82a000	1.0205078
249	0xbef22000	-0.4729004
250	0x3f06c000	0.5263672
251	0x3f174000	0.5908203
252	0x400ac000	2.1679688
253	0x3fb04000	1.3769531
254	0x3face000	1.3505859
255	0x3fbe6000	1.4873047

const_fold_opt__482 f4 [96, 1, 3, 3]
0	0x4004e000	2.0761719
1	0x400e6000	2.2246094
2	0x3f90a000	1.1298828
3	0x3ebb4000	0.36572266
4	0x3e7ae000	0.24499512
5	0x3f3f0000	0.74609375
6	0xbeb6c000	-0.3569336
7	0x3c53c000	0.012924194
8	0x3ec1e000	0.3786621
9	0x3f3cc000	0.7373047
10	0x3e89a000	0.26879883
11	0x3f3e0000	0.7421875
12	0x3fb0c000	1.3808594
13	0xbf00a000	-0.5024414
14	0x3fae2000	1.3603516
15	0x3ef7a000	0.48364258
16	0x3f95a000	1.1689453
17	0x3f4f6000	0.8100586
18	0xbf336000	-0.7006836
19	0xbfb86000	-1.4404297
20	0xbf79e000	-0.9760742
21	0xbf9a4000	-1.2050781
22	0xbf2a4000	-0.66503906
23	0xbf906000	-1.1279297
24	0xbf90a000	-1.1298828
25	0xbec10000	-0.37695312
26	0x3e0b2000	0.13586426
27	0xbfe8e000	-1.8193359
28	0xc0304000	-2.7539062
29	0xbdca4000	-0.09875488
30	0xbfa98000	-1.3242188
31	0xc0522000	-3.2832031
32	0x3e5f2000	0.21789551
33	0x3ca78000	0.020446777
34	0x402b8000	2.6796875
35	0x40216000	2.5214844
36	0x3fd94000	1.6972656
37	0x3fdae000	1.7099609
38	0x40010000	2.015625
39	0x3f674000	0.9033203
40	0x40016000	2.0214844
41	0x401a2000	2.4082031
42	0x3fbd8000	1.4804688
43	0x4009e000	2.1542969
44	0x3f892000	1.0712891
45	0x3c96a000	0.01838684
46	0x3ec6e000	0.38842773
47	0x3e9fe000	0.31225586
48	0x3c91c000	0.017791748
49	0x3fa20000	1.265625
50	0x3f11a000	0.56884766
51	0x3e31a000	0.17346191
52	0x3eff4000	0.49853516
53	0x3cf50000	0.029907227
54	0xbd8c6000	-0.06854248
55	0x3fb74000	1.4316406
56	0x3eda2000	0.4260254
57	0xbf9c8000	-1.2226562
58	0x4012a000	2.2910156
59	0x3f226000	0.63427734
60	0xbf8e8000	-1.1132812
61	0xbdbca000	-0.09210205
62	0xbe3de000	-0.1854248
63	0xbdc80000	-0.09765625
64	0xbf262000	-0.6489258
65	0x3da20000	0.07910156
66	0xbf296000	-0.6616211
67	0xc0134000	-2.3007812
68	0xbdbee000	-0.09320068
69	0xbd2ba000	-0.041900635
70	0xbdfa2000	-0.12213135
71	0x3e35a000	0.17736816
72	0x3dcb0000	0.099121094
73	0x3ea0c000	0.31396484
74	0x3f2f4000	0.6845703
75	0x3e17a000	0.14807129
76	0x407e0000	3.96875
77	0x3eba6000	0.36401367
78	0x3dbf0000	0.09326172
79	0x3d946000	0.07244873
80	0xbd2a4000	-0.04156494
81	0xbe5c4000	-0.21508789
82	0xbd39e000	-0.04537964
83	0x3e6f4000	0.23364258
84	0xbff76000	-1.9326172
85	0xbfa46000	-1.2841797
86	0x3f14c000	0.5810547
87	0xbfb14000	-1.3847656
88	0xbf9c2000	-1.2197266
89	0x3e7a0000	0.24414062
90	0x3e4d8000	0.2006836
91	0x3fcc2000	1.5947266
92	0xbe8e2000	-0.2775879
93	0x40306000	2.7558594
94	0x40694000	3.6445312
95	0x3baea000	0.005329132
96	0x3f4fe000	0.8120117
97	0x3ebac000	0.3647461
98	0xbf5f2000	-0.87158203
99	0xbe6ae000	-0.22937012
100	0xbf822000	-1.0166016
101	0xbecf0000	-0.40429688
102	0x3ed78000	0.42089844
103	0xbfd60000	-1.671875
104	0xbf144000	-0.57910156
105	0xbe322000	-0.1739502
106	0x3dd72000	0.105041504
107	0xbe0fc000	-0.14038086
108	0x3f01e000	0.5073242
109	0x3fca0000	1.578125
110	0x3f2fc000	0.68652344
111	0x3f710000	0.94140625
112	0x40850000	4.15625
113	0x3f926000	1.1435547
114	0xbeb82000	-0.35961914
115	0x3fc22000	1.5166016
116	0xbfddc000	-1.7324219
117	0x3e0ae000	0.13562012
118	0xbebb0000	-0.36523438
119	0xbe252000	-0.16125488
120	0x3e848000	0.25878906
121	0xbf970000	-1.1796875
122	0x3c514000	0.012771606
123	0x40300000	2.75
124	0x3f97e000	1.1865234
125	0x3f062000	0.5239258
126	0xbec9e000	-0.3942871
127	0x3f318000	0.6933594
128	0x40022000	2.0332031
129	0xbf426000	-0.75927734
130	0x3f6e4000	0.93066406
131	0x3fca0000	1.578125
132	0x3e0e0000	0.13867188
133	0x3f598000	0.8496094
134	0x400aa000	2.1660156
135	0x3f172000	0.59033203
136	0x3ffe2000	1.9853516
137	0x3e462000	0.19348145
138	0xbe798000	-0.24365234
139	0xbfcf0000	-1.6171875
140	0x3ee42000	0.44555664
141	0xc05fe000	-3.4980469
142	0xc06de000	-3.7167969
143	0x4003c000	2.0585938
144	0xbf004000	-0.50097656
145	0x3e914000	0.2836914
146	0xbf586000	-0.84521484
147	0x3e1aa000	0.15100098
148	0x407ba000	3.9316406
149	0x3c962000	0.018325806
150	0x3eeec000	0.4663086
151	0xbe28a000	-0.16467285
152	0xbee6a000	-0.45043945
153	0xbd19e000	-0.03756714
154	0x3eaae000	0.33374023
155	0xbc9ba000	-0.018997192
156	0xbecec000	-0.4038086
157	0xc038a000	-2.8847656
158	0x3ef50000	0.47851562
159	0xbe740000	-0.23828125
160	0xbd9f2000	-0.077697754
161	0x3e234000	0.15942383
162	0x3ed74000	0.42041016
163	0x3f176000	0.5913086
164	0xbf2c4000	-0.67285156
165	0x3fd48000	1.6601562
166	0x3f402000	0.7504883
167	0x3e9c2000	0.30493164
168	0x3ff56000	1.9169922
169	0x3f80a000	1.0048828
170	0x3d2da000	0.042388916
171	0xbf0da000	-0.55322266
172	0xbe1b4000	-0.15161133
173	0x3f24e000	0.64404297
174	0xbfa84000	-1.3144531
175	0xc00f0000	-2.234375
176	0x3e6d2000	0.23156738
177	0xbf584000	-0.84472656
178	0x4003e000	2.0605469
179	0x3fdf0000	1.7421875
180	0xbf4d8000	-0.8027344
181	0x3f6f4000	0.9345703
182	0xbfaea000	-1.3642578
183	0xbfec8000	-1.8476562
184	0x3f6de000	0.9291992
185	0xbfb26000	-1.3935547
186	0xbf698000	-0.9121094
187	0xbf608000	-0.8769531
188	0xbcf7a000	-0.030227661
189	0x3f8d8000	1.1054688
190	0x3d3e2000	0.046417236
191	0xbf412000	-0.75439453
192	0x3f4c2000	0.7973633
193	0xbeb92000	-0.36157227
194	0xbf38a000	-0.7211914
195	0x3ddf4000	0.10900879
196	0xbf83e000	-1.0302734
197	0x3e2dc000	0.16967773
198	0x3ed52000	0.41625977
199	0x3e5de000	0.2166748
200	0xc01d0000	-2.453125
201	0x3f33a000	0.70166016
202	0x3f066000	0.52490234
203	0xbfe32000	-1.7744141
204	0x3e116000	0.14196777
205	0xbd416000	-0.047210693
206	0xbfbae000	-1.4599609
207	0x3fc56000	1.5419922
208	0xbedf8000	-0.43652344
209	0xbff12000	-1.8837891
210	0x3f8a8000	1.0820312
211	0xbe87a000	-0.26489258
212	0xbfb76000	-1.4326172
213	0x3ed22000	0.4104004
214	0x3f38a000	0.7211914
215	0x3e60c000	0.21948242
216	0x3f81a000	1.0126953
217	0x3f2ce000	0.67529297
218	0x3e816000	0.25268555
219	0x40108000	2.2578125
220	0x4029e000	2.6542969
221	0xbeec0000	-0.4609375
222	0x3f9fa000	1.2470703
223	0xbf32c000	-0.6982422
224	0xbf102000	-0.5629883
225	0x3f592000	0.84814453
226	0x403c8000	2.9453125
227	0x3f882000	1.0634766
228	0xbefac000	-0.4897461
229	0x4024a000	2.5722656
230	0x3fa68000	1.3007812
231	0xbfc48000	-1.5351562
232	0xbd96e000	-0.07366943
233	0x3da18000	0.07885742
234	0xc0144000	-2.3164062
235	0xbf1d6000	-0.6147461
236	0xbfb50000	-1.4140625
237	0xbe918000	-0.2841797
238	0x402ba000	2.6816406
239	0x3f3a0000	0.7265625
240	0x3eb48000	0.35253906
241	0x3f902000	1.1259766
242	0x3d13e000	0.036102295
243	0xbe0ae000	-0.13562012
244	0xbe89c000	-0.26904297
245	0xbf994000	-1.1972656
246	0x3d5a4000	0.05328369
247	0xbfc1c000	-1.5136719
248	0xbefb8000	-0.49121094
249	0x3ed24000	0.41064453
250	0xbe266000	-0.16247559
251	0x3de82000	0.113342285
252	0xbf1f2000	-0.62158203
253	0x400c4000	2.1914062
254	0x40418000	3.0234375
255	0xbe5bc000	-0.21459961

const_fold_opt__480 f4 [80, 72, 1, 1]
0	0xbd6d0000	-0.057861328
1	0x3e3f6000	0.18688965
2	0xbc0a6000	-0.00844574
3	0xbe036000	-0.1282959
4	0xbc8fa000	-0.017532349
5	0xbcd7a000	-0.026321411
6	0x3e1ec000	0.1550293
7	0xbcab0000	-0.020874023
8	0x3c9a0000	0.018798828
9	0x3d0aa000	0.033843994
10	0xbe61c000	-0.22045898
11	0xbd1d4000	-0.038391113
12	0x3cb88000	0.022521973
13	0x3cdc2000	0.026870728
14	0xbbd1a000	-0.0063972473
15	0xbdaec000	-0.08532715
16	0x3cbe2000	0.023208618
17	0xbda8a000	-0.082336426
18	0x3dcb6000	0.0993042
19	0x3c2c6000	0.010520935
20	0x3da32000	0.07965088
21	0x3c29e000	0.010368347
22	0x3d232000	0.03982544
23	0x3a8ec000	0.0010890961
24	0xbdf24000	-0.11828613
25	0xbb3ca000	-0.002878189
26	0x3ca50000	0.020141602
27	0xbc9a0000	-0.018798828
28	0xbd01e000	-0.031707764
29	0xbb70e000	-0.0036754608
30	0x3cd78000	0.026306152
31	0x3d766000	0.060150146
32	0xbdbb8000	-0.091552734
33	0x3d22a000	0.03970337
34	0x3c8fe000	0.017562866
35	0x3d770000	0.060302734
36	0x3db7e000	0.089782715
37	0xbd45e000	-0.048309326
38	0x3d7f6000	0.062347412
39	0x3cb34000	0.021881104
40	0xbd898000	-0.06713867
41	0xbcec6000	-0.02885437
42	0x3e024000	0.12719727
43	0xbade6000	-0.0016965866
44	0xbc9f0000	-0.01940918
45	0xbd0ee000	-0.03488159
46	0xbe26a000	-0.16271973
47	0x3cca2000	0.024673462
48	0xbe152000	-0.14562988
49	0x3dfe0000	0.12402344
50	0x3cace000	0.021102905
51	0xbe60e000	-0.21960449
52	0xbd3ac000	-0.04559326
53	0xbdbfe000	-0.093688965
54	0x3db74000	0.08947754
55	0x3e2c2000	0.16809082
56	0xbcc58000	-0.024108887
57	0xbd69c000	-0.05706787
58	0xbe1ba000	-0.15197754
59	0xbc212000	-0.00983429
60	0xbd6b4000	-0.057434082
61	0x3d77e000	0.060516357
62	0x3cf48000	0.029846191
63	0xbd364000	-0.04449463
64	0x3da7c000	0.08190918
65	0xb9e8e000	-0.0004441738
66	0xbc922000	-0.017837524
67	0xbda5a000	-0.08087158
68	0xbd120000	-0.03564453
69	0xbcc50000	-0.024047852
70	0xbc890000	-0.016723633
71	0x3e334000	0.17504883
72	0xbb87a000	-0.0041389465
73	0x3de8a000	0.113586426
74	0x3cb8a000	0.022537231
75	0xbd632000	-0.05545044
76	0x3d33c000	0.043884277
77	0xbcc74000	-0.02432251
78	0xbc6f2000	-0.014595032
79	0x3c94e000	0.018173218
80	0x3de54000	0.11193848
81	0xbcbd4000	-0.023101807
82	0xbd4e6000	-0.05038452
83	0xbd008000	-0.03137207
84	0xbd2d2000	-0.042266846
85	0x3cb9a000	0.022659302
86	0x3dc4a000	0.0960083
87	0x3ca9e000	0.020736694
88	0x3d170000	0.036865234
89	0xbd220000	-0.03955078
90	0x3e488000	0.19580078
91	0xbd32c000	-0.043640137
92	0x3cd04000	0.025421143
93	0xbb902000	-0.004398346
94	0xbe232000	-0.15930176
95	0x3ca5e000	0.020248413
96	0x3dc7c000	0.09753418
97	0xbcbb8000	-0.022888184
98	0xbd466000	-0.048431396
99	0x3c8ae000	0.016952515
100	0xbdc5a000	-0.09649658
101	0x3d0b4000	0.033996582
102	0x3d8a2000	0.06744385
103	0x3cbfa000	0.023391724
104	0x3c90c000	0.017669678
105	0xbddac000	-0.10681152
106	0x3cc02000	0.023452759
107	0xbdca4000	-0.09875488
108	0xbd8e6000	-0.06951904
109	0x3d8a8000	0.06762695
110	0xbc19e000	-0.009391785
111	0xbd5ac000	-0.05340576
112	0x3d858000	0.06518555
113	0xbc7b4000	-0.015335083
114	0xbd810000	-0.06298828
115	0xbd7c2000	-0.061553955
116	0x3d324000	0.043518066
117	0xbcf14000	-0.029449463
118	0x3bcba000	0.006214142
119	0x3d87c000	0.06628418
120	0x3c592000	0.013252258
121	0x3ce58000	0.028015137
122	0xbc0b0000	-0.008483887
123	0x3dcde000	0.1005249
124	0xbd078000	-0.033081055
125	0xbddd8000	-0.1081543
126	0x3cbc6000	0.022994995
127	0x3cb6a000	0.02229309
128	0xbd284000	-0.04107666
129	0xbe25a000	-0.16174316
130	0x3b1d2000	0.0023975372
131	0x3d740000	0.059570312
132	0xbe5ea000	-0.21740723
133	0x3dbc4000	0.091918945
134	0x3abbe000	0.0014333725
135	0xbd382000	-0.044952393
136	0x3cbba000	0.022903442
137	0x3d574000	0.05255127
138	0xbdb44000	-0.088012695
139	0xbe0b8000	-0.13623047
140	0xbd9b8000	-0.075927734
141	0xbdf1c000	-0.11804199
142	0x3c0b4000	0.0084991455
143	0xbd116000	-0.035491943
144	0x3c7fe000	0.015617371
145	0x3e03e000	0.12878418
146	0xbe8f2000	-0.27954102
147	0xbb5b4000	-0.0033454895
148	0xbdc30000	-0.095214844
149	0xbdcec000	-0.10095215
150	0x3cf4c000	0.029876709
151	0xbd32a000	-0.04360962
152	0xbdbf2000	-0.093322754
153	0xbc2b4000	-0.0104522705
154	0x3d356000	0.044281006
155	0x3be56000	0.0069999695
156	0xbdb0c000	-0.08630371
157	0x3cbf0000	0.02331543
158	0x3e2d6000	0.16931152
159	0x3d06a000	0.03286743
160	0x3e0c0000	0.13671875
161	0xbd09a000	-0.033599854
162	0x3c856000	0.016281128
163	0xbb886000	-0.0041618347
164	0x3d2dc000	0.042419434
165	0x3ca3e000	0.020004272
166	0x3e01e000	0.12683105
167	0xbd994000	-0.0748291
168	0xbd4c8000	-0.049926758
169	0x3d950000	0.072753906
170	0xbde8c000	-0.11364746
171	0x3d05e000	0.032684326
172	0xbc5ce000	-0.01348114
173	0xbcdfa000	-0.027297974
174	0x3da18000	0.07885742
175	0x3cb78000	0.022399902
176	0x3d144000	0.036193848
177	0xbd106000	-0.035247803
178	0xbccc6000	-0.02494812
179	0xbda06000	-0.078308105
180	0xbe7e0000	-0.24804688
181	0xbdfac000	-0.12243652
182	0x3d66c000	0.05633545
183	0xbe1b2000	-0.15148926
184	0xbba66000	-0.005077362
185	0xbda84000	-0.08215332
186	0x3d1f6000	0.038909912
187	0x3c532000	0.012886047
188	0x3d3c4000	0.045959473
189	0xbd7e8000	-0.06213379
190	0xbe1ce000	-0.15319824
191	0x3c784000	0.015151978
192	0xbd16c000	-0.0368042
193	0xbd91a000	-0.07110596
194	0xbcfde000	-0.0309906
195	0x3d1bc000	0.038024902
196	0xbd58c000	-0.05291748
197	0xbd928000	-0.0715332
198	0x3d212000	0.03933716
199	0x3e5ec000	0.2175293
200	0xbd17e000	-0.037078857
201	0xbe40e000	-0.18835449
202	0xbe39e000	-0.18151855
203	0x3e02a000	0.12756348
204	0x3dea0000	0.11425781
205	0x3c87c000	0.016571045
206	0xbdac8000	-0.084228516
207	0xbd70a000	-0.058746338
208	0x3d7ba000	0.061431885
209	0xbd85c000	-0.06530762
210	0xbd952000	-0.07281494
211	0xbc1e2000	-0.009651184
212	0xbda7e000	-0.081970215
213	0x3e288000	0.16455078
214	0xbd114000	-0.035461426
215	0x3deae000	0.11468506
216	0x3d76e000	0.060272217
217	0x3d950000	0.072753906
218	0x3c524000	0.012832642
219	0xbe52e000	-0.20593262
220	0x3c546000	0.012962341
221	0x3bb8e000	0.0056419373
222	0x3db42000	0.08795166
223	0xbd130000	-0.035888672
224	0x3cefe000	0.029281616
225	0xbc220000	-0.009887695
226	0x3d69a000	0.057037354
227	0x3bbf2000	0.005832672
228	0x3d21a000	0.03945923
229	0x3d92c000	0.07165527
230	0x3dfe0000	0.12402344
231	0x3d9ec000	0.07751465
232	0x3d19e000	0.03756714
233	0xbc90c000	-0.017669678
234	0xbdd9a000	-0.10626221
235	0x3c30c000	0.010787964
236	0x3e172000	0.14758301
237	0x38704000	5.7280064e-05
238	0x3d9a8000	0.07543945
239	0x3c2e2000	0.010627747
240	0xbe0bc000	-0.13647461
241	0x3d100000	0.03515625
242	0xbd464000	-0.04840088
243	0xbda54000	-0.08068848
244	0xbc5e0000	-0.013549805
245	0xbdd32000	-0.10308838
246	0xbd10e000	-0.035369873
247	0xbc356000	-0.011070251
248	0x3dae8000	0.08520508
249	0x3d008000	0.03137207
250	0xbdf7e000	-0.121032715
251	0xbc85e000	-0.016342163
252	0x3dd88000	0.10571289
253	0xbd93c000	-0.072143555
254	0xbd0d6000	-0.03451538
255	0xbdbce000	-0.09222412

const_fold_opt__479 f4 [32, 28, 1, 1]
0	0xbe09e000	-0.13464355
1	0xbb5de000	-0.0033855438
2	0x3dfd2000	0.12359619
3	0xbe108000	-0.14111328
4	0xbbb1a000	-0.005420685
5	0x3e7f6000	0.24938965
6	0xbc0c4000	-0.008560181
7	0x3e336000	0.1751709
8	0xbe118000	-0.14208984
9	0xbd6c2000	-0.057647705
10	0x3d9f6000	0.077819824
11	0x3c902000	0.017593384
12	0x3c1fa000	0.009742737
13	0xbd8e0000	-0.06933594
14	0x3d43c000	0.047790527
15	0xbde62000	-0.11236572
16	0x3d956000	0.07293701
17	0x3c234000	0.009963989
18	0x3e506000	0.20349121
19	0x3e2f8000	0.17138672
20	0xbd6ce000	-0.05783081
21	0x3b744000	0.0037269592
22	0xbcaba000	-0.020950317
23	0x3b854000	0.0040664673
24	0x3dd4c000	0.103881836
25	0x3cf24000	0.029571533
26	0xbdf68000	-0.12036133
27	0xbd8e4000	-0.06945801
28	0x3d724000	0.059143066
29	0xbbae6000	-0.0053215027
30	0xbdcb6000	-0.0993042
31	0xbdc3c000	-0.095581055
32	0xbd2e6000	-0.04257202
33	0xbd816000	-0.06317139
34	0x3dcda000	0.10040283
35	0xbcfd6000	-0.030929565
36	0x3deb2000	0.11480713
37	0x3dc14000	0.09436035
38	0x3d9c6000	0.07635498
39	0xbcf0c000	-0.029388428
40	0x3c9ae000	0.01890564
41	0xbd9b6000	-0.0758667
42	0xbd98c000	-0.07458496
43	0xbb938000	-0.004501343
44	0x3e5f8000	0.21826172
45	0x3c390000	0.011291504
46	0x3d0ce000	0.03439331
47	0x3dc58000	0.09643555
48	0x3bd72000	0.006565094
49	0x3d802000	0.062561035
50	0xba0f0000	-0.0005455017
51	0x3e144000	0.14477539
52	0x3d764000	0.06011963
53	0xbca18000	-0.019714355
54	0xbe874000	-0.26416016
55	0xbdc60000	-0.09667969
56	0x3c7b8000	0.015350342
57	0xbd3ba000	-0.045806885
58	0xbd070000	-0.032958984
59	0x3e476000	0.19470215
60	0xbe196000	-0.14978027
61	0xbc9ec000	-0.019378662
62	0xbd904000	-0.07043457
63	0xba978000	-0.0011558533
64	0x3cd02000	0.025405884
65	0xbd50e000	-0.050994873
66	0x3c024000	0.007949829
67	0xbd5a0000	-0.053222656
68	0xbe13c000	-0.14428711
69	0x3d802000	0.062561035
70	0xbd6ae000	-0.05734253
71	0x3d754000	0.05987549
72	0xbd8ca000	-0.06866455
73	0x3d816000	0.06317139
74	0x3d048000	0.032348633
75	0xbd1ac000	-0.03778076
76	0x3da12000	0.07867432
77	0x3d72a000	0.05923462
78	0x391e2000	0.00015079975
79	0xbd56c000	-0.0524292
80	0xbd6c6000	-0.05770874
81	0x3c2b2000	0.010444641
82	0xbca64000	-0.02029419
83	0xbd566000	-0.052337646
84	0x3cd4a000	0.0259552
85	0xbc872000	-0.016494751
86	0xbd65a000	-0.05606079
87	0x3d16c000	0.0368042
88	0xbdb9e000	-0.09075928
89	0xbbf0a000	-0.0073432922
90	0xbcffe000	-0.031234741
91	0x3c648000	0.013946533
92	0x3cda0000	0.026611328
93	0xbd620000	-0.05517578
94	0xbd0d4000	-0.034484863
95	0xbc084000	-0.00831604
96	0xbddc0000	-0.107421875
97	0xbd968000	-0.07348633
98	0xbcf0c000	-0.029388428
99	0x3d64c000	0.055847168
100	0x3d5f6000	0.054534912
101	0x3d2f2000	0.042755127
102	0x3d288000	0.041137695
103	0xbc7e2000	-0.015510559
104	0xbd1a0000	-0.037597656
105	0x3d3a2000	0.045440674
106	0xbce16000	-0.027511597
107	0x3d96c000	0.0736084
108	0xbd6d4000	-0.057922363
109	0x3d602000	0.054718018
110	0xbdfc8000	-0.123291016
111	0xbc8d8000	-0.01727295
112	0x3d48e000	0.049041748
113	0x3c32e000	0.010917664
114	0xbc2dc000	-0.010604858
115	0xbc8e2000	-0.017349243
116	0x3d70a000	0.058746338
117	0xbc700000	-0.0146484375
118	0xbc312000	-0.010810852
119	0xbd86e000	-0.06585693
120	0x3d1e6000	0.03866577
121	0x3c73c000	0.014877319
122	0xbd25e000	-0.040496826
123	0x3d0f0000	0.03491211
124	0x3e0e0000	0.13867188
125	0x3a87a000	0.0010347366
126	0xbbce6000	-0.006298065
127	0x3d742000	0.05960083
128	0xbd976000	-0.073913574
129	0xbd506000	-0.050872803
130	0x3c4f8000	0.012664795
131	0xbe562000	-0.20910645
132	0xbdfd2000	-0.12359619
133	0xbd28a000	-0.041168213
134	0x3c408000	0.011749268
135	0x3c868000	0.016418457
136	0xbdf1c000	-0.11804199
137	0xbd5de000	-0.0541687
138	0x3db38000	0.087646484
139	0xbcab2000	-0.020889282
140	0x3df64000	0.12023926
141	0x3deac000	0.11462402
142	0x3a88e000	0.0010442734
143	0xbc152000	-0.009101868
144	0x3d4d4000	0.050109863
145	0x3e708000	0.23486328
146	0xbd35e000	-0.044403076
147	0x3db3a000	0.08770752
148	0xbec02000	-0.37524414
149	0xbe17c000	-0.14819336
150	0xbd768000	-0.060180664
151	0xbcf88000	-0.030334473
152	0x3d162000	0.03665161
153	0x3d4a0000	0.049316406
154	0xbdee6000	-0.11639404
155	0xbd1e0000	-0.03857422
156	0x3d39e000	0.04537964
157	0x3e0b2000	0.13586426
158	0xbbcb4000	-0.0062026978
159	0xbd1c8000	-0.038208008
160	0xbc86c000	-0.016448975
161	0xbd62c000	-0.055358887
162	0x3df48000	0.119384766
163	0xbd11a000	-0.03555298
164	0xbb278000	-0.0025558472
165	0xbbd30000	-0.006439209
166	0x3c8a0000	0.016845703
167	0x3ba1c000	0.0049362183
168	0xbeb38000	-0.35058594
169	0xbe1b6000	-0.1517334
170	0x3d094000	0.0335083
171	0xbd45c000	-0.04827881
172	0x3cae2000	0.021255493
173	0x3da38000	0.079833984
174	0xbd93c000	-0.072143555
175	0xbc59c000	-0.013290405
176	0x3e118000	0.14208984
177	0x3d87a000	0.066223145
178	0x3da26000	0.07928467
179	0x3cc24000	0.023712158
180	0x3b8cc000	0.004295349
181	0x3d138000	0.036010742
182	0xbd096000	-0.03353882
183	0xbdcdc000	-0.10046387
184	0xbda4e000	-0.08050537
185	0xbde64000	-0.11242676
186	0x3d71a000	0.05899048
187	0x3ca24000	0.019805908
188	0x3d27c000	0.04095459
189	0xbd2a8000	-0.041625977
190	0xbe2a6000	-0.16638184
191	0xbd662000	-0.05618286
192	0xbd834000	-0.064086914
193	0x3df30000	0.118652344
194	0xbe1c6000	-0.15270996
195	0xbdb28000	-0.0871582
196	0x3d03a000	0.03213501
197	0xbd594000	-0.05303955
198	0x3d6c2000	0.057647705
199	0xbdb90000	-0.09033203
200	0x3d0d6000	0.03451538
201	0x3cb38000	0.021911621
202	0x3d2fe000	0.042938232
203	0x3c34c000	0.0110321045
204	0xbcf24000	-0.029571533
205	0xbc862000	-0.01637268
206	0x3e0de000	0.1385498
207	0xbd88a000	-0.066711426
208	0xbbb18000	-0.00541687
209	0xbdec0000	-0.115234375
210	0xbcbbe000	-0.02293396
211	0xbe0ec000	-0.1394043
212	0xbb61a000	-0.0034427643
213	0x3c17c000	0.009262085
214	0x3dd86000	0.105651855
215	0x3e164000	0.14672852
216	0xbe21a000	-0.15783691
217	0x3de54000	0.11193848
218	0x3dc74000	0.09729004
219	0x3bd52000	0.006504059
220	0xbd4a0000	-0.049316406
221	0xbcb1c000	-0.021697998
222	0xbe3a6000	-0.18200684
223	0x3d912000	0.07086182
224	0x3dc8a000	0.097961426
225	0x3d9b8000	0.075927734
226	0xbd38c000	-0.04510498
227	0xbde16000	-0.11004639
228	0x3d734000	0.059387207
229	0xbd542000	-0.05178833
230	0xbdb18000	-0.08666992
231	0xbdfcc000	-0.123413086
232	0xbc0c6000	-0.00856781
233	0xbd446000	-0.047943115
234	0x3cc76000	0.024337769
235	0xbbc6c000	-0.0060653687
236	0x3dcd8000	0.1003418
237	0xbc6f4000	-0.014602661
238	0xbe238000	-0.15966797
239	0xbe25c000	-0.16186523
240	0x3dbd2000	0.09234619
241	0xbcc56000	-0.024093628
242	0xbd236000	-0.039886475
243	0x3d222000	0.0395813
244	0x3d3be000	0.04586792
245	0xbd9c0000	-0.076171875
246	0x3df6a000	0.12042236
247	0x3d88e000	0.066833496
248	0xbc9ac000	-0.01889038
249	0x3dd04000	0.10168457
250	0xbd898000	-0.06713867
251	0xbc87e000	-0.016586304
252	0x3d88a000	0.066711426
253	0x3d4e8000	0.05041504
254	0x3cef8000	0.02923584
255	0xbdb0a000	-0.086242676

const_fold_opt__476 f4 [96, 1, 3, 3]
0	0xbea9e000	-0.3317871
1	0x40534000	3.3007812
2	0xbfe68000	-1.8007812
3	0x40006000	2.0058594
4	0x40a5c000	5.1796875
5	0xc0272000	-2.6113281
6	0xbf14a000	-0.5805664
7	0x3ea56000	0.32299805
8	0xbf1d8000	-0.6152344
9	0x3cdba000	0.026809692
10	0xbf60e000	-0.87841797
11	0xbf0c4000	-0.54785156
12	0xbf8fc000	-1.1230469
13	0xbfb04000	-1.3769531
14	0xbfb68000	-1.4257812
15	0x3ecd4000	0.4008789
16	0xbe5e6000	-0.21716309
17	0xbdf78000	-0.12084961
18	0xbfe18000	-1.7617188
19	0xbfb28000	-1.3945312
20	0xbfd00000	-1.625
21	0xbff84000	-1.9394531
22	0xbf48a000	-0.7836914
23	0xbda86000	-0.082214355
24	0xbffd2000	-1.9775391
25	0x3fc66000	1.5498047
26	0xbfd28000	-1.6445312
27	0xbe412000	-0.18859863
28	0x3e924000	0.28564453
29	0xbfd32000	-1.6494141
30	0xbeac4000	-0.33642578
31	0x4023e000	2.5605469
32	0xc0052000	-2.0800781
33	0xbee2e000	-0.44311523
34	0xbeb50000	-0.35351562
35	0xbf6b4000	-0.9189453
36	0xbfa36000	-1.2763672
37	0xbe9f8000	-0.31152344
38	0xbea0e000	-0.31420898
39	0xbff0a000	-1.8798828
40	0xbfcae000	-1.5849609
41	0xbfbd6000	-1.4794922
42	0xbfb8e000	-1.4443359
43	0xbff12000	-1.8837891
44	0xbff5c000	-1.9199219
45	0x3f60c000	0.8779297
46	0x3f396000	0.7241211
47	0x3f754000	0.9580078
48	0xbd210000	-0.03930664
49	0x3fb8a000	1.4423828
50	0x3e546000	0.20739746
51	0xbe442000	-0.19152832
52	0x3e832000	0.25610352
53	0xbec12000	-0.37719727
54	0xbe760000	-0.24023438
55	0x3f740000	0.953125
56	0xbeb86000	-0.36010742
57	0xc00bc000	-2.1835938
58	0x400da000	2.2128906
59	0x3ced2000	0.028945923
60	0xbfeea000	-1.8642578
61	0xbfc36000	-1.5263672
62	0x3e93a000	0.28833008
63	0xbe5ee000	-0.21765137
64	0x3d0b2000	0.033966064
65	0x3987e000	0.000259161
66	0xbefc2000	-0.49243164
67	0x400dc000	2.2148438
68	0x3dd58000	0.10424805
69	0x3ec38000	0.38183594
70	0x3ee1a000	0.44067383
71	0xbe216000	-0.15759277
72	0xbe406000	-0.18786621
73	0xbd65a000	-0.05606079
74	0xbe8ac000	-0.2709961
75	0x3f19c000	0.60058594
76	0x3f5ac000	0.8544922
77	0xbe5cc000	-0.21557617
78	0x3f878000	1.0585938
79	0x3f25a000	0.64697266
80	0xbda84000	-0.08215332
81	0xbf26c000	-0.6513672
82	0xbfb12000	-1.3837891
83	0x3ee54000	0.4477539
84	0xbf962000	-1.1728516
85	0xbffca000	-1.9736328
86	0xbf11c000	-0.56933594
87	0xbf00c000	-0.5029297
88	0xbe164000	-0.14672852
89	0xbe938000	-0.28808594
90	0x3ff80000	1.9375
91	0x4037a000	2.8691406
92	0xbf690000	-0.91015625
93	0x403d2000	2.9550781
94	0x4026c000	2.6054688
95	0xbfb96000	-1.4482422
96	0xbf34e000	-0.70654297
97	0xbed14000	-0.4086914
98	0xbe796000	-0.24353027
99	0x3f53e000	0.8276367
100	0x3cbf4000	0.023345947
101	0x3f110000	0.56640625
102	0x3f52a000	0.8227539
103	0x3edd6000	0.43237305
104	0x3fbe8000	1.4882812
105	0x3f004000	0.50097656
106	0x3fa42000	1.2822266
107	0x3f228000	0.6347656
108	0xbea62000	-0.3244629
109	0xc03f2000	-2.9863281
110	0xbec80000	-0.390625
111	0x3f128000	0.5722656
112	0xc0098000	-2.1484375
113	0x3f9f4000	1.2441406
114	0x3edd0000	0.43164062
115	0x3fe66000	1.7998047
116	0x3f3ea000	0.7446289
117	0x3f772000	0.96533203
118	0x3e006000	0.12536621
119	0xbd3b4000	-0.045715332
120	0x3f6d8000	0.9277344
121	0xbf4f0000	-0.80859375
122	0x3ed78000	0.42089844
123	0x3f986000	1.1904297
124	0x3f652000	0.89501953
125	0x3fa62000	1.2978516
126	0xbfa5e000	-1.2958984
127	0xbf6b2000	-0.91845703
128	0xbd944000	-0.072387695
129	0xc0394000	-2.8945312
130	0x3ebc6000	0.36791992
131	0xbd240000	-0.040039062
132	0xbe8b2000	-0.27172852
133	0x3f680000	0.90625
134	0x3debc000	0.115112305
135	0x3fdc0000	1.71875
136	0x3ef82000	0.48461914
137	0xbfaec000	-1.3652344
138	0x3ee82000	0.45336914
139	0x40252000	2.5800781
140	0xbf8da000	-1.1064453
141	0xbd800000	-0.0625
142	0x3e920000	0.28515625
143	0xbe49c000	-0.19702148
144	0xbf9a4000	-1.2050781
145	0xc0016000	-2.0214844
146	0xbfe12000	-1.7587891
147	0xbf658000	-0.8964844
148	0xbf244000	-0.64160156
149	0xbeede000	-0.4645996
150	0x3f95e000	1.1708984
151	0x3ff0a000	1.8798828
152	0x3caf8000	0.02142334
153	0x3f2fc000	0.68652344
154	0xbf0ac000	-0.5419922
155	0x3f9ee000	1.2412109
156	0x3ff26000	1.8935547
157	0xbf12a000	-0.5727539
158	0xbe606000	-0.21911621
159	0x3fc2e000	1.5224609
160	0x3f702000	0.9379883
161	0xbf5a4000	-0.85253906
162	0xc001e000	-2.0292969
163	0xc002e000	-2.0449219
164	0x3f212000	0.62939453
165	0xc0024000	-2.0351562
166	0xc0a58000	-5.171875
167	0xbfd3e000	-1.6552734
168	0xbe81e000	-0.2536621
169	0xbf7dc000	-0.99121094
170	0xbe61e000	-0.22058105
171	0x3d592000	0.053009033
172	0xbebfa000	-0.37426758
173	0x3f946000	1.1591797
174	0xbfb86000	-1.4404297
175	0xc07ac000	-3.9179688
176	0xbf6f4000	-0.9345703
177	0xbeb00000	-0.34375
178	0xbf868000	-1.0507812
179	0xbf908000	-1.1289062
180	0xbf4da000	-0.80322266
181	0x3d794000	0.06085205
182	0x3e600000	0.21875
183	0x3e43c000	0.19116211
184	0x3fcaa000	1.5830078
185	0x3e51e000	0.20495605
186	0x3fa0a000	1.2548828
187	0x3dd0e000	0.101989746
188	0xbfb66000	-1.4248047
189	0xbfb3a000	-1.4033203
190	0xbe7b4000	-0.24536133
191	0xbe2f4000	-0.17114258
192	0xbf628000	-0.8847656
193	0xbff68000	-1.9257812
194	0xbf11a000	-0.56884766
195	0xbf33c000	-0.70214844
196	0xbf7fa000	-0.99853516
197	0xbd84c000	-0.064819336
198	0x3ff48000	1.9101562
199	0x3f958000	1.1679688
200	0x3f8ca000	1.0986328
201	0x40148000	2.3203125
202	0x3fa58000	1.2929688
203	0x3f6a2000	0.9145508
204	0x3fd10000	1.6328125
205	0x3fac2000	1.3447266
206	0x3f690000	0.91015625
207	0xc015e000	-2.3417969
208	0xbea12000	-0.31469727
209	0xbef36000	-0.4753418
210	0xbf402000	-0.7504883
211	0x405c4000	3.4414062
212	0x3f52e000	0.82373047
213	0xbf50e000	-0.81591797
214	0x3f630000	0.88671875
215	0xbdeda000	-0.11602783
216	0xbfa06000	-1.2529297
217	0x3fd68000	1.6757812
218	0x3faf2000	1.3681641
219	0x3e7a6000	0.24450684
220	0x3f9a4000	1.2050781
221	0xbeea0000	-0.45703125
222	0x3df5e000	0.12005615
223	0x3f31e000	0.6948242
224	0xbea20000	-0.31640625
225	0xc0898000	-4.296875
226	0xc0196000	-2.3964844
227	0xbf79a000	-0.97509766
228	0xc02f6000	-2.7402344
229	0xbf6a2000	-0.9145508
230	0xbe570000	-0.20996094
231	0xc018c000	-2.3867188
232	0xbfae6000	-1.3623047
233	0xbebd4000	-0.3696289
234	0x3e354000	0.17700195
235	0xbf882000	-1.0634766
236	0xbf190000	-0.59765625
237	0xbed9a000	-0.42504883
238	0xc069e000	-3.6542969
239	0xbee3a000	-0.44458008
240	0x3ce12000	0.02748108
241	0xbf802000	-1.0009766
242	0x3cb8e000	0.022567749
243	0x40362000	2.8457031
244	0x40230000	2.546875
245	0x3f98a000	1.1923828
246	0x3fe60000	1.796875
247	0xbff72000	-1.9306641
248	0x3e058000	0.1303711
249	0x3fe24000	1.7675781
250	0xbe938000	-0.28808594
251	0xbe624000	-0.22094727
252	0x3f2dc000	0.67871094
253	0x4023c000	2.5585938
254	0x40518000	3.2734375
255	0xbe488000	-0.19580078
